…
I0915 20:17:03.725901 16350 solver.cpp:67] Creating training net from net file: ./model/train.prototxt
I0915 20:17:03.726469 16350 net.cpp:275] The NetState phase (0) differed from the phase (1) specified by a rule in layer data
I0915 20:17:03.726663 16350 net.cpp:39] Initializing net from parameters: 
name: "CaffeNet"
layers {
  top: "data"
  top: "label"
  name: "data"
  type: DATA
  data_param {
    source: "./data/train_lmdb"
    batch_size: 48
    backend: LMDB
  }
  include {
    phase: TRAIN
  }
  transform_param {
    mirror: true
    crop_size: 227
    mean_file: "./data/mean_train.proto"
  }
}
layers {
  bottom: "data"
  top: "conv1"
  name: "conv1"
  type: CONVOLUTION
  blobs_lr: 1
  blobs_lr: 2
  weight_decay: 1
  weight_decay: 0
  convolution_param {
    num_output: 96
    kernel_size: 11
    stride: 4
    weight_filler {
      type: "gaussian"
      std: 0.01
    }
    bias_filler {
      type: "constant"
      value: 0
    }
  }
}
layers {
  bottom: "conv1"
  top: "conv1"
  name: "relu1"
  type: RELU
}
layers {
  bottom: "conv1"
  top: "pool1"
  name: "pool1"
  type: POOLING
  pooling_param {
    pool: MAX
    kernel_size: 3
    stride: 2
  }
}
layers {
  bottom: "pool1"
  top: "norm1"
  name: "norm1"
  type: LRN
  lrn_param {
    local_size: 5
    alpha: 0.0001
    beta: 0.75
  }
}
layers {
  bottom: "norm1"
  top: "conv2"
  name: "conv2"
  type: CONVOLUTION
  blobs_lr: 1
  blobs_lr: 2
  weight_decay: 1
  weight_decay: 0
  convolution_param {
    num_output: 256
    pad: 2
    kernel_size: 5
    group: 2
    weight_filler {
      type: "gaussian"
      std: 0.01
    }
    bias_filler {
      type: "constant"
      value: 1
    }
  }
}
layers {
  bottom: "conv2"
  top: "conv2"
  name: "relu2"
  type: RELU
}
layers {
  bottom: "conv2"
  top: "pool2"
  name: "pool2"
  type: POOLING
  pooling_param {
    pool: MAX
    kernel_size: 3
    stride: 2
  }
}
layers {
  bottom: "pool2"
  top: "norm2"
  name: "norm2"
  type: LRN
  lrn_param {
    local_size: 5
    alpha: 0.0001
    beta: 0.75
  }
}
layers {
  bottom: "norm2"
  top: "conv3"
  name: "conv3"
  type: CONVOLUTION
  blobs_lr: 1
  blobs_lr: 2
  weight_decay: 1
  weight_decay: 0
  convolution_param {
    num_output: 384
    pad: 1
    kernel_size: 3
    weight_filler {
      type: "gaussian"
      std: 0.01
    }
    bias_filler {
      type: "constant"
      value: 0
    }
  }
}
layers {
  bottom: "conv3"
  top: "conv3"
  name: "relu3"
  type: RELU
}
layers {
  bottom: "conv3"
  top: "conv4"
  name: "conv4"
  type: CONVOLUTION
  blobs_lr: 1
  blobs_lr: 2
  weight_decay: 1
  weight_decay: 0
  convolution_param {
    num_output: 384
    pad: 1
    kernel_size: 3
    group: 2
    weight_filler {
      type: "gaussian"
      std: 0.01
    }
    bias_filler {
      type: "constant"
      value: 1
    }
  }
}
layers {
  bottom: "conv4"
  top: "conv4"
  name: "relu4"
  type: RELU
}
layers {
  bottom: "conv4"
  top: "conv5"
  name: "conv5"
  type: CONVOLUTION
  blobs_lr: 1
  blobs_lr: 2
  weight_decay: 1
  weight_decay: 0
  convolution_param {
    num_output: 256
    pad: 1
    kernel_size: 3
    group: 2
    weight_filler {
      type: "gaussian"
      std: 0.01
    }
    bias_filler {
      type: "constant"
      value: 1
    }
  }
}
layers {
  bottom: "conv5"
  top: "conv5"
  name: "relu5"
  type: RELU
}
layers {
  bottom: "conv5"
  top: "pool5"
  name: "pool5"
  type: POOLING
  pooling_param {
    pool: MAX
    kernel_size: 3
    stride: 2
  }
}
layers {
  bottom: "pool5"
  top: "fc6"
  name: "fc6"
  type: INNER_PRODUCT
  blobs_lr: 1
  blobs_lr: 2
  weight_decay: 1
  weight_decay: 0
  inner_product_param {
    num_output: 4096
    weight_filler {
      type: "gaussian"
      std: 0.005
    }
    bias_filler {
      type: "constant"
      value: 1
    }
  }
}
layers {
  bottom: "fc6"
  top: "fc6"
  name: "relu6"
  type: RELU
}
layers {
  bottom: "fc6"
  top: "fc6"
  name: "drop6"
  type: DROPOUT
  dropout_param {
    dropout_ratio: 0.5
  }
}
layers {
  bottom: "fc6"
  top: "fc7"
  name: "fc7"
  type: INNER_PRODUCT
  blobs_lr: 1
  blobs_lr: 2
  weight_decay: 1
  weight_decay: 0
  inner_product_param {
    num_output: 4096
    weight_filler {
      type: "gaussian"
      std: 0.005
    }
    bias_filler {
      type: "constant"
      value: 1
    }
  }
}
layers {
  bottom: "fc7"
  top: "fc7"
  name: "relu7"
  type: RELU
}
layers {
  bottom: "fc7"
  top: "fc7"
  name: "drop7"
  type: DROPOUT
  dropout_param {
    dropout_ratio: 0.5
  }
}
layers {
  bottom: "fc7"
  top: "fc8_4nail"
  name: "fc8_4nail"
  type: INNER_PRODUCT
  blobs_lr: 10
  blobs_lr: 20
  weight_decay: 1
  weight_decay: 0
  inner_product_param {
    num_output: 5
    weight_filler {
      type: "gaussian"
      std: 0.01
    }
    bias_filler {
      type: "constant"
      value: 0
    }
  }
}
layers {
  bottom: "fc8_4nail"
  bottom: "label"
  top: "accuracy"
  name: "accuracy"
  type: ACCURACY
}
layers {
  bottom: "fc8_4nail"
  bottom: "label"
  top: "loss"
  name: "loss"
  type: SOFTMAX_LOSS
}
state {
  phase: TRAIN
}
I0915 20:17:03.726814 16350 net.cpp:67] Creating Layer data
I0915 20:17:03.726835 16350 net.cpp:356] data -> data
I0915 20:17:03.726855 16350 net.cpp:356] data -> label
I0915 20:17:03.726876 16350 net.cpp:96] Setting up data
I0915 20:17:03.726979 16350 data_layer.cpp:68] Opening lmdb ./data/train_lmdb
I0915 20:17:03.727162 16350 data_layer.cpp:128] output data size: 48,3,227,227
I0915 20:17:03.727180 16350 base_data_layer.cpp:36] Loading mean file from./data/mean_train.proto
I0915 20:17:03.745715 16350 net.cpp:103] Top shape: 48 3 227 227 (7420176)
I0915 20:17:03.745734 16350 net.cpp:103] Top shape: 48 1 1 1 (48)
I0915 20:17:03.745744 16350 net.cpp:67] Creating Layer label_data_1_split
I0915 20:17:03.745749 16350 net.cpp:394] label_data_1_split <- label
I0915 20:17:03.745766 16350 net.cpp:356] label_data_1_split -> label_data_1_split_0
I0915 20:17:03.745777 16350 net.cpp:356] label_data_1_split -> label_data_1_split_1
I0915 20:17:03.745790 16350 net.cpp:96] Setting up label_data_1_split
I0915 20:17:03.745797 16350 net.cpp:103] Top shape: 48 1 1 1 (48)
I0915 20:17:03.745803 16350 net.cpp:103] Top shape: 48 1 1 1 (48)
I0915 20:17:03.745812 16350 net.cpp:67] Creating Layer conv1
I0915 20:17:03.745818 16350 net.cpp:394] conv1 <- data
I0915 20:17:03.745825 16350 net.cpp:356] conv1 -> conv1
I0915 20:17:03.745832 16350 net.cpp:96] Setting up conv1
I0915 20:17:03.746978 16350 net.cpp:103] Top shape: 48 96 55 55 (13939200)
I0915 20:17:03.747001 16350 net.cpp:67] Creating Layer relu1
I0915 20:17:03.747009 16350 net.cpp:394] relu1 <- conv1
I0915 20:17:03.747014 16350 net.cpp:345] relu1 -> conv1 (in-place)
I0915 20:17:03.747022 16350 net.cpp:96] Setting up relu1
I0915 20:17:03.747027 16350 net.cpp:103] Top shape: 48 96 55 55 (13939200)
I0915 20:17:03.747035 16350 net.cpp:67] Creating Layer pool1
I0915 20:17:03.747040 16350 net.cpp:394] pool1 <- conv1
I0915 20:17:03.747045 16350 net.cpp:356] pool1 -> pool1
I0915 20:17:03.747053 16350 net.cpp:96] Setting up pool1
I0915 20:17:03.747066 16350 net.cpp:103] Top shape: 48 96 27 27 (3359232)
I0915 20:17:03.747079 16350 net.cpp:67] Creating Layer norm1
I0915 20:17:03.747084 16350 net.cpp:394] norm1 <- pool1
I0915 20:17:03.747090 16350 net.cpp:356] norm1 -> norm1
I0915 20:17:03.747097 16350 net.cpp:96] Setting up norm1
I0915 20:17:03.747107 16350 net.cpp:103] Top shape: 48 96 27 27 (3359232)
I0915 20:17:03.747114 16350 net.cpp:67] Creating Layer conv2
I0915 20:17:03.747119 16350 net.cpp:394] conv2 <- norm1
I0915 20:17:03.747125 16350 net.cpp:356] conv2 -> conv2
I0915 20:17:03.747134 16350 net.cpp:96] Setting up conv2
I0915 20:17:03.757011 16350 net.cpp:103] Top shape: 48 256 27 27 (8957952)
I0915 20:17:03.757045 16350 net.cpp:67] Creating Layer relu2
I0915 20:17:03.757053 16350 net.cpp:394] relu2 <- conv2
I0915 20:17:03.757061 16350 net.cpp:345] relu2 -> conv2 (in-place)
I0915 20:17:03.757067 16350 net.cpp:96] Setting up relu2
I0915 20:17:03.757072 16350 net.cpp:103] Top shape: 48 256 27 27 (8957952)
I0915 20:17:03.757082 16350 net.cpp:67] Creating Layer pool2
I0915 20:17:03.757088 16350 net.cpp:394] pool2 <- conv2
I0915 20:17:03.757094 16350 net.cpp:356] pool2 -> pool2
I0915 20:17:03.757103 16350 net.cpp:96] Setting up pool2
I0915 20:17:03.757110 16350 net.cpp:103] Top shape: 48 256 13 13 (2076672)
I0915 20:17:03.757124 16350 net.cpp:67] Creating Layer norm2
I0915 20:17:03.757132 16350 net.cpp:394] norm2 <- pool2
I0915 20:17:03.757138 16350 net.cpp:356] norm2 -> norm2
I0915 20:17:03.757143 16350 net.cpp:96] Setting up norm2
I0915 20:17:03.757150 16350 net.cpp:103] Top shape: 48 256 13 13 (2076672)
I0915 20:17:03.757160 16350 net.cpp:67] Creating Layer conv3
I0915 20:17:03.757171 16350 net.cpp:394] conv3 <- norm2
I0915 20:17:03.757179 16350 net.cpp:356] conv3 -> conv3
I0915 20:17:03.757185 16350 net.cpp:96] Setting up conv3
I0915 20:17:03.787041 16350 net.cpp:103] Top shape: 48 384 13 13 (3115008)
I0915 20:17:03.787093 16350 net.cpp:67] Creating Layer relu3
I0915 20:17:03.787101 16350 net.cpp:394] relu3 <- conv3
I0915 20:17:03.787111 16350 net.cpp:345] relu3 -> conv3 (in-place)
I0915 20:17:03.787122 16350 net.cpp:96] Setting up relu3
I0915 20:17:03.787127 16350 net.cpp:103] Top shape: 48 384 13 13 (3115008)
I0915 20:17:03.787135 16350 net.cpp:67] Creating Layer conv4
I0915 20:17:03.787140 16350 net.cpp:394] conv4 <- conv3
I0915 20:17:03.787147 16350 net.cpp:356] conv4 -> conv4
I0915 20:17:03.787156 16350 net.cpp:96] Setting up conv4
I0915 20:17:03.809545 16350 net.cpp:103] Top shape: 48 384 13 13 (3115008)
I0915 20:17:03.809566 16350 net.cpp:67] Creating Layer relu4
I0915 20:17:03.809571 16350 net.cpp:394] relu4 <- conv4
I0915 20:17:03.809577 16350 net.cpp:345] relu4 -> conv4 (in-place)
I0915 20:17:03.809586 16350 net.cpp:96] Setting up relu4
I0915 20:17:03.809589 16350 net.cpp:103] Top shape: 48 384 13 13 (3115008)
I0915 20:17:03.809603 16350 net.cpp:67] Creating Layer conv5
I0915 20:17:03.809614 16350 net.cpp:394] conv5 <- conv4
I0915 20:17:03.809623 16350 net.cpp:356] conv5 -> conv5
I0915 20:17:03.809633 16350 net.cpp:96] Setting up conv5
I0915 20:17:03.824249 16350 net.cpp:103] Top shape: 48 256 13 13 (2076672)
I0915 20:17:03.824275 16350 net.cpp:67] Creating Layer relu5
I0915 20:17:03.824282 16350 net.cpp:394] relu5 <- conv5
I0915 20:17:03.824288 16350 net.cpp:345] relu5 -> conv5 (in-place)
I0915 20:17:03.824295 16350 net.cpp:96] Setting up relu5
I0915 20:17:03.824301 16350 net.cpp:103] Top shape: 48 256 13 13 (2076672)
I0915 20:17:03.824312 16350 net.cpp:67] Creating Layer pool5
I0915 20:17:03.824324 16350 net.cpp:394] pool5 <- conv5
I0915 20:17:03.824340 16350 net.cpp:356] pool5 -> pool5
I0915 20:17:03.824352 16350 net.cpp:96] Setting up pool5
I0915 20:17:03.824360 16350 net.cpp:103] Top shape: 48 256 6 6 (442368)
I0915 20:17:03.824372 16350 net.cpp:67] Creating Layer fc6
I0915 20:17:03.824376 16350 net.cpp:394] fc6 <- pool5
I0915 20:17:03.824384 16350 net.cpp:356] fc6 -> fc6
I0915 20:17:03.824393 16350 net.cpp:96] Setting up fc6
I0915 20:17:05.094898 16350 net.cpp:103] Top shape: 48 4096 1 1 (196608)
I0915 20:17:05.094956 16350 net.cpp:67] Creating Layer relu6
I0915 20:17:05.094964 16350 net.cpp:394] relu6 <- fc6
I0915 20:17:05.094974 16350 net.cpp:345] relu6 -> fc6 (in-place)
I0915 20:17:05.094982 16350 net.cpp:96] Setting up relu6
I0915 20:17:05.094987 16350 net.cpp:103] Top shape: 48 4096 1 1 (196608)
I0915 20:17:05.094995 16350 net.cpp:67] Creating Layer drop6
I0915 20:17:05.095005 16350 net.cpp:394] drop6 <- fc6
I0915 20:17:05.095015 16350 net.cpp:345] drop6 -> fc6 (in-place)
I0915 20:17:05.095023 16350 net.cpp:96] Setting up drop6
I0915 20:17:05.095033 16350 net.cpp:103] Top shape: 48 4096 1 1 (196608)
I0915 20:17:05.095047 16350 net.cpp:67] Creating Layer fc7
I0915 20:17:05.095052 16350 net.cpp:394] fc7 <- fc6
I0915 20:17:05.095059 16350 net.cpp:356] fc7 -> fc7
I0915 20:17:05.095069 16350 net.cpp:96] Setting up fc7
I0915 20:17:05.658566 16350 net.cpp:103] Top shape: 48 4096 1 1 (196608)
I0915 20:17:05.658620 16350 net.cpp:67] Creating Layer relu7
I0915 20:17:05.658628 16350 net.cpp:394] relu7 <- fc7
I0915 20:17:05.658638 16350 net.cpp:345] relu7 -> fc7 (in-place)
I0915 20:17:05.658645 16350 net.cpp:96] Setting up relu7
I0915 20:17:05.658653 16350 net.cpp:103] Top shape: 48 4096 1 1 (196608)
I0915 20:17:05.658663 16350 net.cpp:67] Creating Layer drop7
I0915 20:17:05.658668 16350 net.cpp:394] drop7 <- fc7
I0915 20:17:05.658674 16350 net.cpp:345] drop7 -> fc7 (in-place)
I0915 20:17:05.658681 16350 net.cpp:96] Setting up drop7
I0915 20:17:05.658687 16350 net.cpp:103] Top shape: 48 4096 1 1 (196608)
I0915 20:17:05.658696 16350 net.cpp:67] Creating Layer fc8_4nail
I0915 20:17:05.658700 16350 net.cpp:394] fc8_4nail <- fc7
I0915 20:17:05.658711 16350 net.cpp:356] fc8_4nail -> fc8_4nail
I0915 20:17:05.658730 16350 net.cpp:96] Setting up fc8_4nail
I0915 20:17:05.659417 16350 net.cpp:103] Top shape: 48 5 1 1 (240)
I0915 20:17:05.659445 16350 net.cpp:67] Creating Layer fc8_4nail_fc8_4nail_0_split
I0915 20:17:05.659456 16350 net.cpp:394] fc8_4nail_fc8_4nail_0_split <- fc8_4nail
I0915 20:17:05.659462 16350 net.cpp:356] fc8_4nail_fc8_4nail_0_split -> fc8_4nail_fc8_4nail_0_split_0
I0915 20:17:05.659471 16350 net.cpp:356] fc8_4nail_fc8_4nail_0_split -> fc8_4nail_fc8_4nail_0_split_1
I0915 20:17:05.659483 16350 net.cpp:96] Setting up fc8_4nail_fc8_4nail_0_split
I0915 20:17:05.659489 16350 net.cpp:103] Top shape: 48 5 1 1 (240)
I0915 20:17:05.659493 16350 net.cpp:103] Top shape: 48 5 1 1 (240)
I0915 20:17:05.659502 16350 net.cpp:67] Creating Layer accuracy
I0915 20:17:05.659512 16350 net.cpp:394] accuracy <- fc8_4nail_fc8_4nail_0_split_0
I0915 20:17:05.659518 16350 net.cpp:394] accuracy <- label_data_1_split_0
I0915 20:17:05.659523 16350 net.cpp:356] accuracy -> accuracy
I0915 20:17:05.659531 16350 net.cpp:96] Setting up accuracy
I0915 20:17:05.659540 16350 net.cpp:103] Top shape: 1 1 1 1 (1)
I0915 20:17:05.659554 16350 net.cpp:67] Creating Layer loss
I0915 20:17:05.659560 16350 net.cpp:394] loss <- fc8_4nail_fc8_4nail_0_split_1
I0915 20:17:05.659565 16350 net.cpp:394] loss <- label_data_1_split_1
I0915 20:17:05.659574 16350 net.cpp:356] loss -> loss
I0915 20:17:05.659580 16350 net.cpp:96] Setting up loss
I0915 20:17:05.659593 16350 net.cpp:103] Top shape: 1 1 1 1 (1)
I0915 20:17:05.659602 16350 net.cpp:109]     with loss weight 1
I0915 20:17:05.659641 16350 net.cpp:170] loss needs backward computation.
I0915 20:17:05.659647 16350 net.cpp:172] accuracy does not need backward computation.
I0915 20:17:05.659652 16350 net.cpp:170] fc8_4nail_fc8_4nail_0_split needs backward computation.
I0915 20:17:05.659658 16350 net.cpp:170] fc8_4nail needs backward computation.
…
I0107 19:12:26.241649 15160 solver.cpp:67] Creating training net from net file: ./model/train.prototxt
I0107 19:12:26.242194 15160 net.cpp:275] The NetState phase (0) differed from the phase (1) specified by a rule in layer data
I0107 19:12:26.242388 15160 net.cpp:39] Initializing net from parameters: 
name: "CaffeNet"
layers {
  top: "data"
  top: "label"
  name: "data"
  type: DATA
  data_param {
    source: "./data/train_lmdb"
    batch_size: 48
    backend: LMDB
  }
  include {
    phase: TRAIN
  }
  transform_param {
    mirror: true
    crop_size: 227
    mean_file: "./data/mean_train.proto"
  }
}
layers {
  bottom: "data"
  top: "conv1"
  name: "conv1"
  type: CONVOLUTION
  blobs_lr: 1
  blobs_lr: 2
  weight_decay: 1
  weight_decay: 0
  convolution_param {
    num_output: 96
    kernel_size: 11
    stride: 4
    weight_filler {
      type: "gaussian"
      std: 0.01
    }
    bias_filler {
      type: "constant"
      value: 0
    }
  }
}
layers {
  bottom: "conv1"
  top: "conv1"
  name: "relu1"
  type: RELU
}
layers {
  bottom: "conv1"
  top: "pool1"
  name: "pool1"
  type: POOLING
  pooling_param {
    pool: MAX
    kernel_size: 3
    stride: 2
  }
}
layers {
  bottom: "pool1"
  top: "norm1"
  name: "norm1"
  type: LRN
  lrn_param {
    local_size: 5
    alpha: 0.0001
    beta: 0.75
  }
}
layers {
  bottom: "norm1"
  top: "conv2"
  name: "conv2"
  type: CONVOLUTION
  blobs_lr: 1
  blobs_lr: 2
  weight_decay: 1
  weight_decay: 0
  convolution_param {
    num_output: 256
    pad: 2
    kernel_size: 5
    group: 2
    weight_filler {
      type: "gaussian"
      std: 0.01
    }
    bias_filler {
      type: "constant"
      value: 1
    }
  }
}
layers {
  bottom: "conv2"
  top: "conv2"
  name: "relu2"
  type: RELU
}
layers {
  bottom: "conv2"
  top: "pool2"
  name: "pool2"
  type: POOLING
  pooling_param {
    pool: MAX
    kernel_size: 3
    stride: 2
  }
}
layers {
  bottom: "pool2"
  top: "norm2"
  name: "norm2"
  type: LRN
  lrn_param {
    local_size: 5
    alpha: 0.0001
    beta: 0.75
  }
}
layers {
  bottom: "norm2"
  top: "conv3"
  name: "conv3"
  type: CONVOLUTION
  blobs_lr: 1
  blobs_lr: 2
  weight_decay: 1
  weight_decay: 0
  convolution_param {
    num_output: 384
    pad: 1
    kernel_size: 3
    weight_filler {
      type: "gaussian"
      std: 0.01
    }
    bias_filler {
      type: "constant"
      value: 0
    }
  }
}
layers {
  bottom: "conv3"
  top: "conv3"
  name: "relu3"
  type: RELU
}
layers {
  bottom: "conv3"
  top: "conv4"
  name: "conv4"
  type: CONVOLUTION
  blobs_lr: 1
  blobs_lr: 2
  weight_decay: 1
  weight_decay: 0
  convolution_param {
    num_output: 384
    pad: 1
    kernel_size: 3
    group: 2
    weight_filler {
      type: "gaussian"
      std: 0.01
    }
    bias_filler {
      type: "constant"
      value: 1
    }
  }
}
layers {
  bottom: "conv4"
  top: "conv4"
  name: "relu4"
  type: RELU
}
layers {
  bottom: "conv4"
  top: "conv5"
  name: "conv5"
  type: CONVOLUTION
  blobs_lr: 1
  blobs_lr: 2
  weight_decay: 1
  weight_decay: 0
  convolution_param {
    num_output: 256
    pad: 1
    kernel_size: 3
    group: 2
    weight_filler {
      type: "gaussian"
      std: 0.01
    }
    bias_filler {
      type: "constant"
      value: 1
    }
  }
}
layers {
  bottom: "conv5"
  top: "conv5"
  name: "relu5"
  type: RELU
}
layers {
  bottom: "conv5"
  top: "pool5"
  name: "pool5"
  type: POOLING
  pooling_param {
    pool: MAX
    kernel_size: 3
    stride: 2
  }
}
layers {
  bottom: "pool5"
  top: "fc6_4mic"
  name: "fc6_4mic"
  type: INNER_PRODUCT
  blobs_lr: 1
  blobs_lr: 2
  weight_decay: 1
  weight_decay: 0
  inner_product_param {
    num_output: 1024
    weight_filler {
      type: "gaussian"
      std: 0.005
    }
    bias_filler {
      type: "constant"
      value: 1
    }
  }
}
layers {
  bottom: "fc6_4mic"
  top: "fc6_4mic"
  name: "relu6"
  type: RELU
}
layers {
  bottom: "fc6_4mic"
  top: "fc6_4mic"
  name: "drop6"
  type: DROPOUT
  dropout_param {
    dropout_ratio: 0.5
  }
}
layers {
  bottom: "fc6_4mic"
  top: "fc7_4mic"
  name: "fc7_4mic"
  type: INNER_PRODUCT
  blobs_lr: 1
  blobs_lr: 2
  weight_decay: 1
  weight_decay: 0
  inner_product_param {
    num_output: 1024
    weight_filler {
      type: "gaussian"
      std: 0.005
    }
    bias_filler {
      type: "constant"
      value: 1
    }
  }
}
layers {
  bottom: "fc7_4mic"
  top: "fc7_4mic"
  name: "relu7"
  type: RELU
}
layers {
  bottom: "fc7_4mic"
  top: "fc7_4mic"
  name: "drop7"
  type: DROPOUT
  dropout_param {
    dropout_ratio: 0.5
  }
}
layers {
  bottom: "fc7_4mic"
  top: "fc8_4mic"
  name: "fc8_4mic"
  type: INNER_PRODUCT
  blobs_lr: 10
  blobs_lr: 20
  weight_decay: 1
  weight_decay: 0
  inner_product_param {
    num_output: 2
    weight_filler {
      type: "gaussian"
      std: 0.01
    }
    bias_filler {
      type: "constant"
      value: 0
    }
  }
}
layers {
  bottom: "fc8_4mic"
  bottom: "label"
  top: "accuracy"
  name: "accuracy"
  type: ACCURACY
}
layers {
  bottom: "fc8_4mic"
  bottom: "label"
  top: "loss"
  name: "loss"
  type: SOFTMAX_LOSS
}
state {
  phase: TRAIN
}
I0107 19:12:26.242543 15160 net.cpp:67] Creating Layer data
I0107 19:12:26.242564 15160 net.cpp:356] data -> data
I0107 19:12:26.242584 15160 net.cpp:356] data -> label
I0107 19:12:26.242604 15160 net.cpp:96] Setting up data
I0107 19:12:26.242717 15160 data_layer.cpp:68] Opening lmdb ./data/train_lmdb
I0107 19:12:26.242908 15160 data_layer.cpp:128] output data size: 48,3,227,227
I0107 19:12:26.242925 15160 base_data_layer.cpp:36] Loading mean file from./data/mean_train.proto
I0107 19:12:26.260988 15160 net.cpp:103] Top shape: 48 3 227 227 (7420176)
I0107 19:12:26.261006 15160 net.cpp:103] Top shape: 48 1 1 1 (48)
I0107 19:12:26.261016 15160 net.cpp:67] Creating Layer label_data_1_split
I0107 19:12:26.261021 15160 net.cpp:394] label_data_1_split <- label
I0107 19:12:26.261034 15160 net.cpp:356] label_data_1_split -> label_data_1_split_0
I0107 19:12:26.261047 15160 net.cpp:356] label_data_1_split -> label_data_1_split_1
I0107 19:12:26.261057 15160 net.cpp:96] Setting up label_data_1_split
I0107 19:12:26.261065 15160 net.cpp:103] Top shape: 48 1 1 1 (48)
I0107 19:12:26.261070 15160 net.cpp:103] Top shape: 48 1 1 1 (48)
I0107 19:12:26.261080 15160 net.cpp:67] Creating Layer conv1
I0107 19:12:26.261085 15160 net.cpp:394] conv1 <- data
I0107 19:12:26.261092 15160 net.cpp:356] conv1 -> conv1
I0107 19:12:26.261099 15160 net.cpp:96] Setting up conv1
I0107 19:12:26.262241 15160 net.cpp:103] Top shape: 48 96 55 55 (13939200)
I0107 19:12:26.262264 15160 net.cpp:67] Creating Layer relu1
I0107 19:12:26.262271 15160 net.cpp:394] relu1 <- conv1
I0107 19:12:26.262277 15160 net.cpp:345] relu1 -> conv1 (in-place)
I0107 19:12:26.262284 15160 net.cpp:96] Setting up relu1
I0107 19:12:26.262290 15160 net.cpp:103] Top shape: 48 96 55 55 (13939200)
I0107 19:12:26.262296 15160 net.cpp:67] Creating Layer pool1
I0107 19:12:26.262302 15160 net.cpp:394] pool1 <- conv1
I0107 19:12:26.262308 15160 net.cpp:356] pool1 -> pool1
I0107 19:12:26.262315 15160 net.cpp:96] Setting up pool1
I0107 19:12:26.262328 15160 net.cpp:103] Top shape: 48 96 27 27 (3359232)
I0107 19:12:26.262341 15160 net.cpp:67] Creating Layer norm1
I0107 19:12:26.262346 15160 net.cpp:394] norm1 <- pool1
I0107 19:12:26.262351 15160 net.cpp:356] norm1 -> norm1
I0107 19:12:26.262359 15160 net.cpp:96] Setting up norm1
I0107 19:12:26.262368 15160 net.cpp:103] Top shape: 48 96 27 27 (3359232)
I0107 19:12:26.262375 15160 net.cpp:67] Creating Layer conv2
I0107 19:12:26.262380 15160 net.cpp:394] conv2 <- norm1
I0107 19:12:26.262387 15160 net.cpp:356] conv2 -> conv2
I0107 19:12:26.262394 15160 net.cpp:96] Setting up conv2
I0107 19:12:26.272297 15160 net.cpp:103] Top shape: 48 256 27 27 (8957952)
I0107 19:12:26.272332 15160 net.cpp:67] Creating Layer relu2
I0107 19:12:26.272338 15160 net.cpp:394] relu2 <- conv2
I0107 19:12:26.272344 15160 net.cpp:345] relu2 -> conv2 (in-place)
I0107 19:12:26.272351 15160 net.cpp:96] Setting up relu2
I0107 19:12:26.272356 15160 net.cpp:103] Top shape: 48 256 27 27 (8957952)
I0107 19:12:26.272369 15160 net.cpp:67] Creating Layer pool2
I0107 19:12:26.272373 15160 net.cpp:394] pool2 <- conv2
I0107 19:12:26.272379 15160 net.cpp:356] pool2 -> pool2
I0107 19:12:26.272387 15160 net.cpp:96] Setting up pool2
I0107 19:12:26.272397 15160 net.cpp:103] Top shape: 48 256 13 13 (2076672)
I0107 19:12:26.272406 15160 net.cpp:67] Creating Layer norm2
I0107 19:12:26.272411 15160 net.cpp:394] norm2 <- pool2
I0107 19:12:26.272419 15160 net.cpp:356] norm2 -> norm2
I0107 19:12:26.272426 15160 net.cpp:96] Setting up norm2
I0107 19:12:26.272431 15160 net.cpp:103] Top shape: 48 256 13 13 (2076672)
I0107 19:12:26.272439 15160 net.cpp:67] Creating Layer conv3
I0107 19:12:26.272444 15160 net.cpp:394] conv3 <- norm2
I0107 19:12:26.272454 15160 net.cpp:356] conv3 -> conv3
I0107 19:12:26.272461 15160 net.cpp:96] Setting up conv3
I0107 19:12:26.302230 15160 net.cpp:103] Top shape: 48 384 13 13 (3115008)
I0107 19:12:26.302280 15160 net.cpp:67] Creating Layer relu3
I0107 19:12:26.302287 15160 net.cpp:394] relu3 <- conv3
I0107 19:12:26.302297 15160 net.cpp:345] relu3 -> conv3 (in-place)
I0107 19:12:26.302305 15160 net.cpp:96] Setting up relu3
I0107 19:12:26.302314 15160 net.cpp:103] Top shape: 48 384 13 13 (3115008)
I0107 19:12:26.302322 15160 net.cpp:67] Creating Layer conv4
I0107 19:12:26.302327 15160 net.cpp:394] conv4 <- conv3
I0107 19:12:26.302338 15160 net.cpp:356] conv4 -> conv4
I0107 19:12:26.302347 15160 net.cpp:96] Setting up conv4
I0107 19:12:26.324663 15160 net.cpp:103] Top shape: 48 384 13 13 (3115008)
I0107 19:12:26.324687 15160 net.cpp:67] Creating Layer relu4
I0107 19:12:26.324693 15160 net.cpp:394] relu4 <- conv4
I0107 19:12:26.324699 15160 net.cpp:345] relu4 -> conv4 (in-place)
I0107 19:12:26.324704 15160 net.cpp:96] Setting up relu4
I0107 19:12:26.324715 15160 net.cpp:103] Top shape: 48 384 13 13 (3115008)
I0107 19:12:26.324723 15160 net.cpp:67] Creating Layer conv5
I0107 19:12:26.324728 15160 net.cpp:394] conv5 <- conv4
I0107 19:12:26.324740 15160 net.cpp:356] conv5 -> conv5
I0107 19:12:26.324753 15160 net.cpp:96] Setting up conv5
I0107 19:12:26.339392 15160 net.cpp:103] Top shape: 48 256 13 13 (2076672)
I0107 19:12:26.339413 15160 net.cpp:67] Creating Layer relu5
I0107 19:12:26.339419 15160 net.cpp:394] relu5 <- conv5
I0107 19:12:26.339431 15160 net.cpp:345] relu5 -> conv5 (in-place)
I0107 19:12:26.339438 15160 net.cpp:96] Setting up relu5
I0107 19:12:26.339442 15160 net.cpp:103] Top shape: 48 256 13 13 (2076672)
I0107 19:12:26.339452 15160 net.cpp:67] Creating Layer pool5
I0107 19:12:26.339457 15160 net.cpp:394] pool5 <- conv5
I0107 19:12:26.339465 15160 net.cpp:356] pool5 -> pool5
I0107 19:12:26.339473 15160 net.cpp:96] Setting up pool5
I0107 19:12:26.339480 15160 net.cpp:103] Top shape: 48 256 6 6 (442368)
I0107 19:12:26.339489 15160 net.cpp:67] Creating Layer fc6_4mic
I0107 19:12:26.339494 15160 net.cpp:394] fc6_4mic <- pool5
I0107 19:12:26.339500 15160 net.cpp:356] fc6_4mic -> fc6_4mic
I0107 19:12:26.339510 15160 net.cpp:96] Setting up fc6_4mic
I0107 19:12:26.656239 15160 net.cpp:103] Top shape: 48 1024 1 1 (49152)
I0107 19:12:26.656294 15160 net.cpp:67] Creating Layer relu6
I0107 19:12:26.656301 15160 net.cpp:394] relu6 <- fc6_4mic
I0107 19:12:26.656311 15160 net.cpp:345] relu6 -> fc6_4mic (in-place)
I0107 19:12:26.656318 15160 net.cpp:96] Setting up relu6
I0107 19:12:26.656324 15160 net.cpp:103] Top shape: 48 1024 1 1 (49152)
I0107 19:12:26.656330 15160 net.cpp:67] Creating Layer drop6
I0107 19:12:26.656342 15160 net.cpp:394] drop6 <- fc6_4mic
I0107 19:12:26.656347 15160 net.cpp:345] drop6 -> fc6_4mic (in-place)
I0107 19:12:26.656354 15160 net.cpp:96] Setting up drop6
I0107 19:12:26.656365 15160 net.cpp:103] Top shape: 48 1024 1 1 (49152)
I0107 19:12:26.656373 15160 net.cpp:67] Creating Layer fc7_4mic
I0107 19:12:26.656378 15160 net.cpp:394] fc7_4mic <- fc6_4mic
I0107 19:12:26.656388 15160 net.cpp:356] fc7_4mic -> fc7_4mic
I0107 19:12:26.656396 15160 net.cpp:96] Setting up fc7_4mic
I0107 19:12:26.691597 15160 net.cpp:103] Top shape: 48 1024 1 1 (49152)
I0107 19:12:26.691620 15160 net.cpp:67] Creating Layer relu7
I0107 19:12:26.691625 15160 net.cpp:394] relu7 <- fc7_4mic
I0107 19:12:26.691632 15160 net.cpp:345] relu7 -> fc7_4mic (in-place)
I0107 19:12:26.691638 15160 net.cpp:96] Setting up relu7
I0107 19:12:26.691643 15160 net.cpp:103] Top shape: 48 1024 1 1 (49152)
I0107 19:12:26.691649 15160 net.cpp:67] Creating Layer drop7
I0107 19:12:26.691655 15160 net.cpp:394] drop7 <- fc7_4mic
I0107 19:12:26.691661 15160 net.cpp:345] drop7 -> fc7_4mic (in-place)
I0107 19:12:26.691668 15160 net.cpp:96] Setting up drop7
I0107 19:12:26.691674 15160 net.cpp:103] Top shape: 48 1024 1 1 (49152)
I0107 19:12:26.691684 15160 net.cpp:67] Creating Layer fc8_4mic
I0107 19:12:26.691689 15160 net.cpp:394] fc8_4mic <- fc7_4mic
I0107 19:12:26.691696 15160 net.cpp:356] fc8_4mic -> fc8_4mic
I0107 19:12:26.691706 15160 net.cpp:96] Setting up fc8_4mic
I0107 19:12:26.691783 15160 net.cpp:103] Top shape: 48 2 1 1 (96)
I0107 19:12:26.691798 15160 net.cpp:67] Creating Layer fc8_4mic_fc8_4mic_0_split
I0107 19:12:26.691803 15160 net.cpp:394] fc8_4mic_fc8_4mic_0_split <- fc8_4mic
I0107 19:12:26.691810 15160 net.cpp:356] fc8_4mic_fc8_4mic_0_split -> fc8_4mic_fc8_4mic_0_split_0
I0107 19:12:26.691819 15160 net.cpp:356] fc8_4mic_fc8_4mic_0_split -> fc8_4mic_fc8_4mic_0_split_1
I0107 19:12:26.691826 15160 net.cpp:96] Setting up fc8_4mic_fc8_4mic_0_split
I0107 19:12:26.691835 15160 net.cpp:103] Top shape: 48 2 1 1 (96)
I0107 19:12:26.691840 15160 net.cpp:103] Top shape: 48 2 1 1 (96)
I0107 19:12:26.691848 15160 net.cpp:67] Creating Layer accuracy
I0107 19:12:26.691853 15160 net.cpp:394] accuracy <- fc8_4mic_fc8_4mic_0_split_0
I0107 19:12:26.691859 15160 net.cpp:394] accuracy <- label_data_1_split_0
I0107 19:12:26.691867 15160 net.cpp:356] accuracy -> accuracy
I0107 19:12:26.691874 15160 net.cpp:96] Setting up accuracy
I0107 19:12:26.691882 15160 net.cpp:103] Top shape: 1 1 1 1 (1)
I0107 19:12:26.691890 15160 net.cpp:67] Creating Layer loss
I0107 19:12:26.691896 15160 net.cpp:394] loss <- fc8_4mic_fc8_4mic_0_split_1
I0107 19:12:26.691901 15160 net.cpp:394] loss <- label_data_1_split_1
I0107 19:12:26.691907 15160 net.cpp:356] loss -> loss
I0107 19:12:26.691915 15160 net.cpp:96] Setting up loss
I0107 19:12:26.691928 15160 net.cpp:103] Top shape: 1 1 1 1 (1)
I0107 19:12:26.691938 15160 net.cpp:109]     with loss weight 1
I0107 19:12:26.691975 15160 net.cpp:170] loss needs backward computation.
I0107 19:12:26.691983 15160 net.cpp:172] accuracy does not need backward computation.
I0107 19:12:26.691989 15160 net.cpp:170] fc8_4mic_fc8_4mic_0_split needs backward computation.
I0107 19:12:26.691993 15160 net.cpp:170] fc8_4mic needs backward computation.
…
I0329 17:06:31.932943 18685 solver.cpp:67] Creating training net from net file: ./model/train.prototxt
I0329 17:06:31.933553 18685 net.cpp:275] The NetState phase (0) differed from the phase (1) specified by a rule in layer data
I0329 17:06:31.933758 18685 net.cpp:39] Initializing net from parameters: 
name: "CaffeNet"
layers {
  top: "data"
  top: "label"
  name: "data"
  type: DATA
  data_param {
    source: "./data/train_lmdb"
    batch_size: 48
    backend: LMDB
  }
  include {
    phase: TRAIN
  }
  transform_param {
    mirror: true
    crop_size: 227
    mean_file: "./data/mean_train.proto"
  }
}
layers {
  bottom: "data"
  top: "conv1"
  name: "conv1"
  type: CONVOLUTION
  blobs_lr: 1
  blobs_lr: 2
  weight_decay: 1
  weight_decay: 0
  convolution_param {
    num_output: 96
    kernel_size: 11
    stride: 4
    weight_filler {
      type: "gaussian"
      std: 0.01
    }
    bias_filler {
      type: "constant"
      value: 0
    }
  }
}
layers {
  bottom: "conv1"
  top: "conv1"
  name: "relu1"
  type: RELU
}
layers {
  bottom: "conv1"
  top: "pool1"
  name: "pool1"
  type: POOLING
  pooling_param {
    pool: MAX
    kernel_size: 3
    stride: 2
  }
}
layers {
  bottom: "pool1"
  top: "norm1"
  name: "norm1"
  type: LRN
  lrn_param {
    local_size: 5
    alpha: 0.0001
    beta: 0.75
  }
}
layers {
  bottom: "norm1"
  top: "conv2"
  name: "conv2"
  type: CONVOLUTION
  blobs_lr: 1
  blobs_lr: 2
  weight_decay: 1
  weight_decay: 0
  convolution_param {
    num_output: 256
    pad: 2
    kernel_size: 5
    group: 2
    weight_filler {
      type: "gaussian"
      std: 0.01
    }
    bias_filler {
      type: "constant"
      value: 1
    }
  }
}
layers {
  bottom: "conv2"
  top: "conv2"
  name: "relu2"
  type: RELU
}
layers {
  bottom: "conv2"
  top: "pool2"
  name: "pool2"
  type: POOLING
  pooling_param {
    pool: MAX
    kernel_size: 3
    stride: 2
  }
}
layers {
  bottom: "pool2"
  top: "norm2"
  name: "norm2"
  type: LRN
  lrn_param {
    local_size: 5
    alpha: 0.0001
    beta: 0.75
  }
}
layers {
  bottom: "norm2"
  top: "conv3"
  name: "conv3"
  type: CONVOLUTION
  blobs_lr: 1
  blobs_lr: 2
  weight_decay: 1
  weight_decay: 0
  convolution_param {
    num_output: 384
    pad: 1
    kernel_size: 3
    weight_filler {
      type: "gaussian"
      std: 0.01
    }
    bias_filler {
      type: "constant"
      value: 0
    }
  }
}
layers {
  bottom: "conv3"
  top: "conv3"
  name: "relu3"
  type: RELU
}
layers {
  bottom: "conv3"
  top: "conv4"
  name: "conv4"
  type: CONVOLUTION
  blobs_lr: 1
  blobs_lr: 2
  weight_decay: 1
  weight_decay: 0
  convolution_param {
    num_output: 384
    pad: 1
    kernel_size: 3
    group: 2
    weight_filler {
      type: "gaussian"
      std: 0.01
    }
    bias_filler {
      type: "constant"
      value: 1
    }
  }
}
layers {
  bottom: "conv4"
  top: "conv4"
  name: "relu4"
  type: RELU
}
layers {
  bottom: "conv4"
  top: "conv5"
  name: "conv5"
  type: CONVOLUTION
  blobs_lr: 1
  blobs_lr: 2
  weight_decay: 1
  weight_decay: 0
  convolution_param {
    num_output: 256
    pad: 1
    kernel_size: 3
    group: 2
    weight_filler {
      type: "gaussian"
      std: 0.01
    }
    bias_filler {
      type: "constant"
      value: 1
    }
  }
}
layers {
  bottom: "conv5"
  top: "conv5"
  name: "relu5"
  type: RELU
}
layers {
  bottom: "conv5"
  top: "pool5"
  name: "pool5"
  type: POOLING
  pooling_param {
    pool: MAX
    kernel_size: 3
    stride: 2
  }
}
layers {
  bottom: "pool5"
  top: "fc6"
  name: "fc6"
  type: INNER_PRODUCT
  blobs_lr: 1
  blobs_lr: 2
  weight_decay: 1
  weight_decay: 0
  inner_product_param {
    num_output: 4096
    weight_filler {
      type: "gaussian"
      std: 0.005
    }
    bias_filler {
      type: "constant"
      value: 1
    }
  }
}
layers {
  bottom: "fc6"
  top: "fc6"
  name: "relu6"
  type: RELU
}
layers {
  bottom: "fc6"
  top: "fc6"
  name: "drop6"
  type: DROPOUT
  dropout_param {
    dropout_ratio: 0.5
  }
}
layers {
  bottom: "fc6"
  top: "fc7"
  name: "fc7"
  type: INNER_PRODUCT
  blobs_lr: 1
  blobs_lr: 2
  weight_decay: 1
  weight_decay: 0
  inner_product_param {
    num_output: 4096
    weight_filler {
      type: "gaussian"
      std: 0.005
    }
    bias_filler {
      type: "constant"
      value: 1
    }
  }
}
layers {
  bottom: "fc7"
  top: "fc7"
  name: "relu7"
  type: RELU
}
layers {
  bottom: "fc7"
  top: "fc7"
  name: "drop7"
  type: DROPOUT
  dropout_param {
    dropout_ratio: 0.5
  }
}
layers {
  bottom: "fc7"
  top: "fc8_4nail"
  name: "fc8_4nail"
  type: INNER_PRODUCT
  blobs_lr: 10
  blobs_lr: 20
  weight_decay: 1
  weight_decay: 0
  inner_product_param {
    num_output: 2
    weight_filler {
      type: "gaussian"
      std: 0.01
    }
    bias_filler {
      type: "constant"
      value: 0
    }
  }
}
layers {
  bottom: "fc8_4nail"
  bottom: "label"
  top: "accuracy"
  name: "accuracy"
  type: ACCURACY
}
layers {
  bottom: "fc8_4nail"
  bottom: "label"
  top: "loss"
  name: "loss"
  type: SOFTMAX_LOSS
}
state {
  phase: TRAIN
}
I0329 17:06:31.933923 18685 net.cpp:67] Creating Layer data
I0329 17:06:31.933944 18685 net.cpp:356] data -> data
I0329 17:06:31.933970 18685 net.cpp:356] data -> label
I0329 17:06:31.933991 18685 net.cpp:96] Setting up data
I0329 17:06:31.934118 18685 data_layer.cpp:68] Opening lmdb ./data/train_lmdb
I0329 17:06:31.934324 18685 data_layer.cpp:128] output data size: 48,3,227,227
I0329 17:06:31.934343 18685 base_data_layer.cpp:36] Loading mean file from./data/mean_train.proto
I0329 17:06:31.958988 18685 net.cpp:103] Top shape: 48 3 227 227 (7420176)
I0329 17:06:31.959007 18685 net.cpp:103] Top shape: 48 1 1 1 (48)
I0329 17:06:31.959017 18685 net.cpp:67] Creating Layer label_data_1_split
I0329 17:06:31.959022 18685 net.cpp:394] label_data_1_split <- label
I0329 17:06:31.959035 18685 net.cpp:356] label_data_1_split -> label_data_1_split_0
I0329 17:06:31.959051 18685 net.cpp:356] label_data_1_split -> label_data_1_split_1
I0329 17:06:31.959084 18685 net.cpp:96] Setting up label_data_1_split
I0329 17:06:31.959100 18685 net.cpp:103] Top shape: 48 1 1 1 (48)
I0329 17:06:31.959105 18685 net.cpp:103] Top shape: 48 1 1 1 (48)
I0329 17:06:31.959115 18685 net.cpp:67] Creating Layer conv1
I0329 17:06:31.959128 18685 net.cpp:394] conv1 <- data
I0329 17:06:31.959136 18685 net.cpp:356] conv1 -> conv1
I0329 17:06:31.959146 18685 net.cpp:96] Setting up conv1
I0329 17:06:31.960299 18685 net.cpp:103] Top shape: 48 96 55 55 (13939200)
I0329 17:06:31.960322 18685 net.cpp:67] Creating Layer relu1
I0329 17:06:31.960327 18685 net.cpp:394] relu1 <- conv1
I0329 17:06:31.960347 18685 net.cpp:345] relu1 -> conv1 (in-place)
I0329 17:06:31.960355 18685 net.cpp:96] Setting up relu1
I0329 17:06:31.960360 18685 net.cpp:103] Top shape: 48 96 55 55 (13939200)
I0329 17:06:31.960366 18685 net.cpp:67] Creating Layer pool1
I0329 17:06:31.960374 18685 net.cpp:394] pool1 <- conv1
I0329 17:06:31.960381 18685 net.cpp:356] pool1 -> pool1
I0329 17:06:31.960386 18685 net.cpp:96] Setting up pool1
I0329 17:06:31.960400 18685 net.cpp:103] Top shape: 48 96 27 27 (3359232)
I0329 17:06:31.960413 18685 net.cpp:67] Creating Layer norm1
I0329 17:06:31.960418 18685 net.cpp:394] norm1 <- pool1
I0329 17:06:31.960424 18685 net.cpp:356] norm1 -> norm1
I0329 17:06:31.960431 18685 net.cpp:96] Setting up norm1
I0329 17:06:31.960439 18685 net.cpp:103] Top shape: 48 96 27 27 (3359232)
I0329 17:06:31.960448 18685 net.cpp:67] Creating Layer conv2
I0329 17:06:31.960453 18685 net.cpp:394] conv2 <- norm1
I0329 17:06:31.960458 18685 net.cpp:356] conv2 -> conv2
I0329 17:06:31.960466 18685 net.cpp:96] Setting up conv2
I0329 17:06:31.970386 18685 net.cpp:103] Top shape: 48 256 27 27 (8957952)
I0329 17:06:31.970424 18685 net.cpp:67] Creating Layer relu2
I0329 17:06:31.970432 18685 net.cpp:394] relu2 <- conv2
I0329 17:06:31.970440 18685 net.cpp:345] relu2 -> conv2 (in-place)
I0329 17:06:31.970448 18685 net.cpp:96] Setting up relu2
I0329 17:06:31.970453 18685 net.cpp:103] Top shape: 48 256 27 27 (8957952)
I0329 17:06:31.970463 18685 net.cpp:67] Creating Layer pool2
I0329 17:06:31.970468 18685 net.cpp:394] pool2 <- conv2
I0329 17:06:31.970474 18685 net.cpp:356] pool2 -> pool2
I0329 17:06:31.970480 18685 net.cpp:96] Setting up pool2
I0329 17:06:31.970494 18685 net.cpp:103] Top shape: 48 256 13 13 (2076672)
I0329 17:06:31.970504 18685 net.cpp:67] Creating Layer norm2
I0329 17:06:31.970515 18685 net.cpp:394] norm2 <- pool2
I0329 17:06:31.970520 18685 net.cpp:356] norm2 -> norm2
I0329 17:06:31.970527 18685 net.cpp:96] Setting up norm2
I0329 17:06:31.970532 18685 net.cpp:103] Top shape: 48 256 13 13 (2076672)
I0329 17:06:31.970542 18685 net.cpp:67] Creating Layer conv3
I0329 17:06:31.970551 18685 net.cpp:394] conv3 <- norm2
I0329 17:06:31.970558 18685 net.cpp:356] conv3 -> conv3
I0329 17:06:31.970566 18685 net.cpp:96] Setting up conv3
I0329 17:06:32.001241 18685 net.cpp:103] Top shape: 48 384 13 13 (3115008)
I0329 17:06:32.001314 18685 net.cpp:67] Creating Layer relu3
I0329 17:06:32.001329 18685 net.cpp:394] relu3 <- conv3
I0329 17:06:32.001344 18685 net.cpp:345] relu3 -> conv3 (in-place)
I0329 17:06:32.001359 18685 net.cpp:96] Setting up relu3
I0329 17:06:32.001365 18685 net.cpp:103] Top shape: 48 384 13 13 (3115008)
I0329 17:06:32.001375 18685 net.cpp:67] Creating Layer conv4
I0329 17:06:32.001382 18685 net.cpp:394] conv4 <- conv3
I0329 17:06:32.001389 18685 net.cpp:356] conv4 -> conv4
I0329 17:06:32.001397 18685 net.cpp:96] Setting up conv4
I0329 17:06:32.023839 18685 net.cpp:103] Top shape: 48 384 13 13 (3115008)
I0329 17:06:32.023864 18685 net.cpp:67] Creating Layer relu4
I0329 17:06:32.023870 18685 net.cpp:394] relu4 <- conv4
I0329 17:06:32.023876 18685 net.cpp:345] relu4 -> conv4 (in-place)
I0329 17:06:32.023882 18685 net.cpp:96] Setting up relu4
I0329 17:06:32.023888 18685 net.cpp:103] Top shape: 48 384 13 13 (3115008)
I0329 17:06:32.023900 18685 net.cpp:67] Creating Layer conv5
I0329 17:06:32.023908 18685 net.cpp:394] conv5 <- conv4
I0329 17:06:32.023916 18685 net.cpp:356] conv5 -> conv5
I0329 17:06:32.023923 18685 net.cpp:96] Setting up conv5
I0329 17:06:32.038633 18685 net.cpp:103] Top shape: 48 256 13 13 (2076672)
I0329 17:06:32.038660 18685 net.cpp:67] Creating Layer relu5
I0329 17:06:32.038667 18685 net.cpp:394] relu5 <- conv5
I0329 17:06:32.038674 18685 net.cpp:345] relu5 -> conv5 (in-place)
I0329 17:06:32.038682 18685 net.cpp:96] Setting up relu5
I0329 17:06:32.038687 18685 net.cpp:103] Top shape: 48 256 13 13 (2076672)
I0329 17:06:32.038697 18685 net.cpp:67] Creating Layer pool5
I0329 17:06:32.038707 18685 net.cpp:394] pool5 <- conv5
I0329 17:06:32.038715 18685 net.cpp:356] pool5 -> pool5
I0329 17:06:32.038724 18685 net.cpp:96] Setting up pool5
I0329 17:06:32.038731 18685 net.cpp:103] Top shape: 48 256 6 6 (442368)
I0329 17:06:32.038745 18685 net.cpp:67] Creating Layer fc6
I0329 17:06:32.038753 18685 net.cpp:394] fc6 <- pool5
I0329 17:06:32.038759 18685 net.cpp:356] fc6 -> fc6
I0329 17:06:32.038769 18685 net.cpp:96] Setting up fc6
I0329 17:06:33.343588 18685 net.cpp:103] Top shape: 48 4096 1 1 (196608)
I0329 17:06:33.343652 18685 net.cpp:67] Creating Layer relu6
I0329 17:06:33.343659 18685 net.cpp:394] relu6 <- fc6
I0329 17:06:33.343672 18685 net.cpp:345] relu6 -> fc6 (in-place)
I0329 17:06:33.343682 18685 net.cpp:96] Setting up relu6
I0329 17:06:33.343688 18685 net.cpp:103] Top shape: 48 4096 1 1 (196608)
I0329 17:06:33.343696 18685 net.cpp:67] Creating Layer drop6
I0329 17:06:33.343701 18685 net.cpp:394] drop6 <- fc6
I0329 17:06:33.343709 18685 net.cpp:345] drop6 -> fc6 (in-place)
I0329 17:06:33.343715 18685 net.cpp:96] Setting up drop6
I0329 17:06:33.343729 18685 net.cpp:103] Top shape: 48 4096 1 1 (196608)
I0329 17:06:33.343744 18685 net.cpp:67] Creating Layer fc7
I0329 17:06:33.343750 18685 net.cpp:394] fc7 <- fc6
I0329 17:06:33.343755 18685 net.cpp:356] fc7 -> fc7
I0329 17:06:33.343766 18685 net.cpp:96] Setting up fc7
I0329 17:06:33.922176 18685 net.cpp:103] Top shape: 48 4096 1 1 (196608)
I0329 17:06:33.922245 18685 net.cpp:67] Creating Layer relu7
I0329 17:06:33.922253 18685 net.cpp:394] relu7 <- fc7
I0329 17:06:33.922263 18685 net.cpp:345] relu7 -> fc7 (in-place)
I0329 17:06:33.922274 18685 net.cpp:96] Setting up relu7
I0329 17:06:33.922282 18685 net.cpp:103] Top shape: 48 4096 1 1 (196608)
I0329 17:06:33.922292 18685 net.cpp:67] Creating Layer drop7
I0329 17:06:33.922298 18685 net.cpp:394] drop7 <- fc7
I0329 17:06:33.922304 18685 net.cpp:345] drop7 -> fc7 (in-place)
I0329 17:06:33.922313 18685 net.cpp:96] Setting up drop7
I0329 17:06:33.922318 18685 net.cpp:103] Top shape: 48 4096 1 1 (196608)
I0329 17:06:33.922329 18685 net.cpp:67] Creating Layer fc8_4nail
I0329 17:06:33.922334 18685 net.cpp:394] fc8_4nail <- fc7
I0329 17:06:33.922345 18685 net.cpp:356] fc8_4nail -> fc8_4nail
I0329 17:06:33.922360 18685 net.cpp:96] Setting up fc8_4nail
I0329 17:06:33.922646 18685 net.cpp:103] Top shape: 48 2 1 1 (96)
I0329 17:06:33.922664 18685 net.cpp:67] Creating Layer fc8_4nail_fc8_4nail_0_split
I0329 17:06:33.922672 18685 net.cpp:394] fc8_4nail_fc8_4nail_0_split <- fc8_4nail
I0329 17:06:33.922678 18685 net.cpp:356] fc8_4nail_fc8_4nail_0_split -> fc8_4nail_fc8_4nail_0_split_0
I0329 17:06:33.922685 18685 net.cpp:356] fc8_4nail_fc8_4nail_0_split -> fc8_4nail_fc8_4nail_0_split_1
I0329 17:06:33.922694 18685 net.cpp:96] Setting up fc8_4nail_fc8_4nail_0_split
I0329 17:06:33.922703 18685 net.cpp:103] Top shape: 48 2 1 1 (96)
I0329 17:06:33.922720 18685 net.cpp:103] Top shape: 48 2 1 1 (96)
I0329 17:06:33.922732 18685 net.cpp:67] Creating Layer accuracy
I0329 17:06:33.922744 18685 net.cpp:394] accuracy <- fc8_4nail_fc8_4nail_0_split_0
I0329 17:06:33.922750 18685 net.cpp:394] accuracy <- label_data_1_split_0
I0329 17:06:33.922761 18685 net.cpp:356] accuracy -> accuracy
I0329 17:06:33.922770 18685 net.cpp:96] Setting up accuracy
I0329 17:06:33.922780 18685 net.cpp:103] Top shape: 1 1 1 1 (1)
I0329 17:06:33.922794 18685 net.cpp:67] Creating Layer loss
I0329 17:06:33.922801 18685 net.cpp:394] loss <- fc8_4nail_fc8_4nail_0_split_1
I0329 17:06:33.922807 18685 net.cpp:394] loss <- label_data_1_split_1
I0329 17:06:33.922813 18685 net.cpp:356] loss -> loss
I0329 17:06:33.922819 18685 net.cpp:96] Setting up loss
I0329 17:06:33.922839 18685 net.cpp:103] Top shape: 1 1 1 1 (1)
I0329 17:06:33.922849 18685 net.cpp:109]     with loss weight 1
I0329 17:06:33.922901 18685 net.cpp:170] loss needs backward computation.
I0329 17:06:33.922909 18685 net.cpp:172] accuracy does not need backward computation.
I0329 17:06:33.922914 18685 net.cpp:170] fc8_4nail_fc8_4nail_0_split needs backward computation.
I0329 17:06:33.922922 18685 net.cpp:170] fc8_4nail needs backward computation.
…
