…
I0329 17:06:31.932943 18685 solver.cpp:67] Creating training net from net file: ./model/train.prototxt
I0329 17:06:31.933553 18685 net.cpp:275] The NetState phase (0) differed from the phase (1) specified by a rule in layer data
I0329 17:06:31.933758 18685 net.cpp:39] Initializing net from parameters: 
name: "CaffeNet"
layers {
  top: "data"
  top: "label"
  name: "data"
  type: DATA
  data_param {
    source: "./data/train_lmdb"
    batch_size: 48
    backend: LMDB
  }
  include {
    phase: TRAIN
  }
  transform_param {
    mirror: true
    crop_size: 227
    mean_file: "./data/mean_train.proto"
  }
}
layers {
  bottom: "data"
  top: "conv1"
  name: "conv1"
  type: CONVOLUTION
  blobs_lr: 1
  blobs_lr: 2
  weight_decay: 1
  weight_decay: 0
  convolution_param {
    num_output: 96
    kernel_size: 11
    stride: 4
    weight_filler {
      type: "gaussian"
      std: 0.01
    }
    bias_filler {
      type: "constant"
      value: 0
    }
  }
}
layers {
  bottom: "conv1"
  top: "conv1"
  name: "relu1"
  type: RELU
}
layers {
  bottom: "conv1"
  top: "pool1"
  name: "pool1"
  type: POOLING
  pooling_param {
    pool: MAX
    kernel_size: 3
    stride: 2
  }
}
layers {
  bottom: "pool1"
  top: "norm1"
  name: "norm1"
  type: LRN
  lrn_param {
    local_size: 5
    alpha: 0.0001
    beta: 0.75
  }
}
layers {
  bottom: "norm1"
  top: "conv2"
  name: "conv2"
  type: CONVOLUTION
  blobs_lr: 1
  blobs_lr: 2
  weight_decay: 1
  weight_decay: 0
  convolution_param {
    num_output: 256
    pad: 2
    kernel_size: 5
    group: 2
    weight_filler {
      type: "gaussian"
      std: 0.01
    }
    bias_filler {
      type: "constant"
      value: 1
    }
  }
}
layers {
  bottom: "conv2"
  top: "conv2"
  name: "relu2"
  type: RELU
}
layers {
  bottom: "conv2"
  top: "pool2"
  name: "pool2"
  type: POOLING
  pooling_param {
    pool: MAX
    kernel_size: 3
    stride: 2
  }
}
layers {
  bottom: "pool2"
  top: "norm2"
  name: "norm2"
  type: LRN
  lrn_param {
    local_size: 5
    alpha: 0.0001
    beta: 0.75
  }
}
layers {
  bottom: "norm2"
  top: "conv3"
  name: "conv3"
  type: CONVOLUTION
  blobs_lr: 1
  blobs_lr: 2
  weight_decay: 1
  weight_decay: 0
  convolution_param {
    num_output: 384
    pad: 1
    kernel_size: 3
    weight_filler {
      type: "gaussian"
      std: 0.01
    }
    bias_filler {
      type: "constant"
      value: 0
    }
  }
}
layers {
  bottom: "conv3"
  top: "conv3"
  name: "relu3"
  type: RELU
}
layers {
  bottom: "conv3"
  top: "conv4"
  name: "conv4"
  type: CONVOLUTION
  blobs_lr: 1
  blobs_lr: 2
  weight_decay: 1
  weight_decay: 0
  convolution_param {
    num_output: 384
    pad: 1
    kernel_size: 3
    group: 2
    weight_filler {
      type: "gaussian"
      std: 0.01
    }
    bias_filler {
      type: "constant"
      value: 1
    }
  }
}
layers {
  bottom: "conv4"
  top: "conv4"
  name: "relu4"
  type: RELU
}
layers {
  bottom: "conv4"
  top: "conv5"
  name: "conv5"
  type: CONVOLUTION
  blobs_lr: 1
  blobs_lr: 2
  weight_decay: 1
  weight_decay: 0
  convolution_param {
    num_output: 256
    pad: 1
    kernel_size: 3
    group: 2
    weight_filler {
      type: "gaussian"
      std: 0.01
    }
    bias_filler {
      type: "constant"
      value: 1
    }
  }
}
layers {
  bottom: "conv5"
  top: "conv5"
  name: "relu5"
  type: RELU
}
layers {
  bottom: "conv5"
  top: "pool5"
  name: "pool5"
  type: POOLING
  pooling_param {
    pool: MAX
    kernel_size: 3
    stride: 2
  }
}
layers {
  bottom: "pool5"
  top: "fc6"
  name: "fc6"
  type: INNER_PRODUCT
  blobs_lr: 1
  blobs_lr: 2
  weight_decay: 1
  weight_decay: 0
  inner_product_param {
    num_output: 4096
    weight_filler {
      type: "gaussian"
      std: 0.005
    }
    bias_filler {
      type: "constant"
      value: 1
    }
  }
}
layers {
  bottom: "fc6"
  top: "fc6"
  name: "relu6"
  type: RELU
}
layers {
  bottom: "fc6"
  top: "fc6"
  name: "drop6"
  type: DROPOUT
  dropout_param {
    dropout_ratio: 0.5
  }
}
layers {
  bottom: "fc6"
  top: "fc7"
  name: "fc7"
  type: INNER_PRODUCT
  blobs_lr: 1
  blobs_lr: 2
  weight_decay: 1
  weight_decay: 0
  inner_product_param {
    num_output: 4096
    weight_filler {
      type: "gaussian"
      std: 0.005
    }
    bias_filler {
      type: "constant"
      value: 1
    }
  }
}
layers {
  bottom: "fc7"
  top: "fc7"
  name: "relu7"
  type: RELU
}
layers {
  bottom: "fc7"
  top: "fc7"
  name: "drop7"
  type: DROPOUT
  dropout_param {
    dropout_ratio: 0.5
  }
}
layers {
  bottom: "fc7"
  top: "fc8_4nail"
  name: "fc8_4nail"
  type: INNER_PRODUCT
  blobs_lr: 10
  blobs_lr: 20
  weight_decay: 1
  weight_decay: 0
  inner_product_param {
    num_output: 2
    weight_filler {
      type: "gaussian"
      std: 0.01
    }
    bias_filler {
      type: "constant"
      value: 0
    }
  }
}
layers {
  bottom: "fc8_4nail"
  bottom: "label"
  top: "accuracy"
  name: "accuracy"
  type: ACCURACY
}
layers {
  bottom: "fc8_4nail"
  bottom: "label"
  top: "loss"
  name: "loss"
  type: SOFTMAX_LOSS
}
state {
  phase: TRAIN
}
I0329 17:06:31.933923 18685 net.cpp:67] Creating Layer data
I0329 17:06:31.933944 18685 net.cpp:356] data -> data
I0329 17:06:31.933970 18685 net.cpp:356] data -> label
I0329 17:06:31.933991 18685 net.cpp:96] Setting up data
I0329 17:06:31.934118 18685 data_layer.cpp:68] Opening lmdb ./data/train_lmdb
I0329 17:06:31.934324 18685 data_layer.cpp:128] output data size: 48,3,227,227
I0329 17:06:31.934343 18685 base_data_layer.cpp:36] Loading mean file from./data/mean_train.proto
I0329 17:06:31.958988 18685 net.cpp:103] Top shape: 48 3 227 227 (7420176)
I0329 17:06:31.959007 18685 net.cpp:103] Top shape: 48 1 1 1 (48)
I0329 17:06:31.959017 18685 net.cpp:67] Creating Layer label_data_1_split
I0329 17:06:31.959022 18685 net.cpp:394] label_data_1_split <- label
I0329 17:06:31.959035 18685 net.cpp:356] label_data_1_split -> label_data_1_split_0
I0329 17:06:31.959051 18685 net.cpp:356] label_data_1_split -> label_data_1_split_1
I0329 17:06:31.959084 18685 net.cpp:96] Setting up label_data_1_split
I0329 17:06:31.959100 18685 net.cpp:103] Top shape: 48 1 1 1 (48)
I0329 17:06:31.959105 18685 net.cpp:103] Top shape: 48 1 1 1 (48)
I0329 17:06:31.959115 18685 net.cpp:67] Creating Layer conv1
I0329 17:06:31.959128 18685 net.cpp:394] conv1 <- data
I0329 17:06:31.959136 18685 net.cpp:356] conv1 -> conv1
I0329 17:06:31.959146 18685 net.cpp:96] Setting up conv1
I0329 17:06:31.960299 18685 net.cpp:103] Top shape: 48 96 55 55 (13939200)
I0329 17:06:31.960322 18685 net.cpp:67] Creating Layer relu1
I0329 17:06:31.960327 18685 net.cpp:394] relu1 <- conv1
I0329 17:06:31.960347 18685 net.cpp:345] relu1 -> conv1 (in-place)
I0329 17:06:31.960355 18685 net.cpp:96] Setting up relu1
I0329 17:06:31.960360 18685 net.cpp:103] Top shape: 48 96 55 55 (13939200)
I0329 17:06:31.960366 18685 net.cpp:67] Creating Layer pool1
I0329 17:06:31.960374 18685 net.cpp:394] pool1 <- conv1
I0329 17:06:31.960381 18685 net.cpp:356] pool1 -> pool1
I0329 17:06:31.960386 18685 net.cpp:96] Setting up pool1
I0329 17:06:31.960400 18685 net.cpp:103] Top shape: 48 96 27 27 (3359232)
I0329 17:06:31.960413 18685 net.cpp:67] Creating Layer norm1
I0329 17:06:31.960418 18685 net.cpp:394] norm1 <- pool1
I0329 17:06:31.960424 18685 net.cpp:356] norm1 -> norm1
I0329 17:06:31.960431 18685 net.cpp:96] Setting up norm1
I0329 17:06:31.960439 18685 net.cpp:103] Top shape: 48 96 27 27 (3359232)
I0329 17:06:31.960448 18685 net.cpp:67] Creating Layer conv2
I0329 17:06:31.960453 18685 net.cpp:394] conv2 <- norm1
I0329 17:06:31.960458 18685 net.cpp:356] conv2 -> conv2
I0329 17:06:31.960466 18685 net.cpp:96] Setting up conv2
I0329 17:06:31.970386 18685 net.cpp:103] Top shape: 48 256 27 27 (8957952)
I0329 17:06:31.970424 18685 net.cpp:67] Creating Layer relu2
I0329 17:06:31.970432 18685 net.cpp:394] relu2 <- conv2
I0329 17:06:31.970440 18685 net.cpp:345] relu2 -> conv2 (in-place)
I0329 17:06:31.970448 18685 net.cpp:96] Setting up relu2
I0329 17:06:31.970453 18685 net.cpp:103] Top shape: 48 256 27 27 (8957952)
I0329 17:06:31.970463 18685 net.cpp:67] Creating Layer pool2
I0329 17:06:31.970468 18685 net.cpp:394] pool2 <- conv2
I0329 17:06:31.970474 18685 net.cpp:356] pool2 -> pool2
I0329 17:06:31.970480 18685 net.cpp:96] Setting up pool2
I0329 17:06:31.970494 18685 net.cpp:103] Top shape: 48 256 13 13 (2076672)
I0329 17:06:31.970504 18685 net.cpp:67] Creating Layer norm2
I0329 17:06:31.970515 18685 net.cpp:394] norm2 <- pool2
I0329 17:06:31.970520 18685 net.cpp:356] norm2 -> norm2
I0329 17:06:31.970527 18685 net.cpp:96] Setting up norm2
I0329 17:06:31.970532 18685 net.cpp:103] Top shape: 48 256 13 13 (2076672)
I0329 17:06:31.970542 18685 net.cpp:67] Creating Layer conv3
I0329 17:06:31.970551 18685 net.cpp:394] conv3 <- norm2
I0329 17:06:31.970558 18685 net.cpp:356] conv3 -> conv3
I0329 17:06:31.970566 18685 net.cpp:96] Setting up conv3
I0329 17:06:32.001241 18685 net.cpp:103] Top shape: 48 384 13 13 (3115008)
I0329 17:06:32.001314 18685 net.cpp:67] Creating Layer relu3
I0329 17:06:32.001329 18685 net.cpp:394] relu3 <- conv3
I0329 17:06:32.001344 18685 net.cpp:345] relu3 -> conv3 (in-place)
I0329 17:06:32.001359 18685 net.cpp:96] Setting up relu3
I0329 17:06:32.001365 18685 net.cpp:103] Top shape: 48 384 13 13 (3115008)
I0329 17:06:32.001375 18685 net.cpp:67] Creating Layer conv4
I0329 17:06:32.001382 18685 net.cpp:394] conv4 <- conv3
I0329 17:06:32.001389 18685 net.cpp:356] conv4 -> conv4
I0329 17:06:32.001397 18685 net.cpp:96] Setting up conv4
I0329 17:06:32.023839 18685 net.cpp:103] Top shape: 48 384 13 13 (3115008)
I0329 17:06:32.023864 18685 net.cpp:67] Creating Layer relu4
I0329 17:06:32.023870 18685 net.cpp:394] relu4 <- conv4
I0329 17:06:32.023876 18685 net.cpp:345] relu4 -> conv4 (in-place)
I0329 17:06:32.023882 18685 net.cpp:96] Setting up relu4
I0329 17:06:32.023888 18685 net.cpp:103] Top shape: 48 384 13 13 (3115008)
I0329 17:06:32.023900 18685 net.cpp:67] Creating Layer conv5
I0329 17:06:32.023908 18685 net.cpp:394] conv5 <- conv4
I0329 17:06:32.023916 18685 net.cpp:356] conv5 -> conv5
I0329 17:06:32.023923 18685 net.cpp:96] Setting up conv5
I0329 17:06:32.038633 18685 net.cpp:103] Top shape: 48 256 13 13 (2076672)
I0329 17:06:32.038660 18685 net.cpp:67] Creating Layer relu5
I0329 17:06:32.038667 18685 net.cpp:394] relu5 <- conv5
I0329 17:06:32.038674 18685 net.cpp:345] relu5 -> conv5 (in-place)
I0329 17:06:32.038682 18685 net.cpp:96] Setting up relu5
I0329 17:06:32.038687 18685 net.cpp:103] Top shape: 48 256 13 13 (2076672)
I0329 17:06:32.038697 18685 net.cpp:67] Creating Layer pool5
I0329 17:06:32.038707 18685 net.cpp:394] pool5 <- conv5
I0329 17:06:32.038715 18685 net.cpp:356] pool5 -> pool5
I0329 17:06:32.038724 18685 net.cpp:96] Setting up pool5
I0329 17:06:32.038731 18685 net.cpp:103] Top shape: 48 256 6 6 (442368)
I0329 17:06:32.038745 18685 net.cpp:67] Creating Layer fc6
I0329 17:06:32.038753 18685 net.cpp:394] fc6 <- pool5
I0329 17:06:32.038759 18685 net.cpp:356] fc6 -> fc6
I0329 17:06:32.038769 18685 net.cpp:96] Setting up fc6
I0329 17:06:33.343588 18685 net.cpp:103] Top shape: 48 4096 1 1 (196608)
I0329 17:06:33.343652 18685 net.cpp:67] Creating Layer relu6
I0329 17:06:33.343659 18685 net.cpp:394] relu6 <- fc6
I0329 17:06:33.343672 18685 net.cpp:345] relu6 -> fc6 (in-place)
I0329 17:06:33.343682 18685 net.cpp:96] Setting up relu6
I0329 17:06:33.343688 18685 net.cpp:103] Top shape: 48 4096 1 1 (196608)
I0329 17:06:33.343696 18685 net.cpp:67] Creating Layer drop6
I0329 17:06:33.343701 18685 net.cpp:394] drop6 <- fc6
I0329 17:06:33.343709 18685 net.cpp:345] drop6 -> fc6 (in-place)
I0329 17:06:33.343715 18685 net.cpp:96] Setting up drop6
I0329 17:06:33.343729 18685 net.cpp:103] Top shape: 48 4096 1 1 (196608)
I0329 17:06:33.343744 18685 net.cpp:67] Creating Layer fc7
I0329 17:06:33.343750 18685 net.cpp:394] fc7 <- fc6
I0329 17:06:33.343755 18685 net.cpp:356] fc7 -> fc7
I0329 17:06:33.343766 18685 net.cpp:96] Setting up fc7
I0329 17:06:33.922176 18685 net.cpp:103] Top shape: 48 4096 1 1 (196608)
I0329 17:06:33.922245 18685 net.cpp:67] Creating Layer relu7
I0329 17:06:33.922253 18685 net.cpp:394] relu7 <- fc7
I0329 17:06:33.922263 18685 net.cpp:345] relu7 -> fc7 (in-place)
I0329 17:06:33.922274 18685 net.cpp:96] Setting up relu7
I0329 17:06:33.922282 18685 net.cpp:103] Top shape: 48 4096 1 1 (196608)
I0329 17:06:33.922292 18685 net.cpp:67] Creating Layer drop7
I0329 17:06:33.922298 18685 net.cpp:394] drop7 <- fc7
I0329 17:06:33.922304 18685 net.cpp:345] drop7 -> fc7 (in-place)
I0329 17:06:33.922313 18685 net.cpp:96] Setting up drop7
I0329 17:06:33.922318 18685 net.cpp:103] Top shape: 48 4096 1 1 (196608)
I0329 17:06:33.922329 18685 net.cpp:67] Creating Layer fc8_4nail
I0329 17:06:33.922334 18685 net.cpp:394] fc8_4nail <- fc7
I0329 17:06:33.922345 18685 net.cpp:356] fc8_4nail -> fc8_4nail
I0329 17:06:33.922360 18685 net.cpp:96] Setting up fc8_4nail
I0329 17:06:33.922646 18685 net.cpp:103] Top shape: 48 2 1 1 (96)
I0329 17:06:33.922664 18685 net.cpp:67] Creating Layer fc8_4nail_fc8_4nail_0_split
I0329 17:06:33.922672 18685 net.cpp:394] fc8_4nail_fc8_4nail_0_split <- fc8_4nail
I0329 17:06:33.922678 18685 net.cpp:356] fc8_4nail_fc8_4nail_0_split -> fc8_4nail_fc8_4nail_0_split_0
I0329 17:06:33.922685 18685 net.cpp:356] fc8_4nail_fc8_4nail_0_split -> fc8_4nail_fc8_4nail_0_split_1
I0329 17:06:33.922694 18685 net.cpp:96] Setting up fc8_4nail_fc8_4nail_0_split
I0329 17:06:33.922703 18685 net.cpp:103] Top shape: 48 2 1 1 (96)
I0329 17:06:33.922720 18685 net.cpp:103] Top shape: 48 2 1 1 (96)
I0329 17:06:33.922732 18685 net.cpp:67] Creating Layer accuracy
I0329 17:06:33.922744 18685 net.cpp:394] accuracy <- fc8_4nail_fc8_4nail_0_split_0
I0329 17:06:33.922750 18685 net.cpp:394] accuracy <- label_data_1_split_0
I0329 17:06:33.922761 18685 net.cpp:356] accuracy -> accuracy
I0329 17:06:33.922770 18685 net.cpp:96] Setting up accuracy
I0329 17:06:33.922780 18685 net.cpp:103] Top shape: 1 1 1 1 (1)
I0329 17:06:33.922794 18685 net.cpp:67] Creating Layer loss
I0329 17:06:33.922801 18685 net.cpp:394] loss <- fc8_4nail_fc8_4nail_0_split_1
I0329 17:06:33.922807 18685 net.cpp:394] loss <- label_data_1_split_1
I0329 17:06:33.922813 18685 net.cpp:356] loss -> loss
I0329 17:06:33.922819 18685 net.cpp:96] Setting up loss
I0329 17:06:33.922839 18685 net.cpp:103] Top shape: 1 1 1 1 (1)
I0329 17:06:33.922849 18685 net.cpp:109]     with loss weight 1
I0329 17:06:33.922901 18685 net.cpp:170] loss needs backward computation.
I0329 17:06:33.922909 18685 net.cpp:172] accuracy does not need backward computation.
I0329 17:06:33.922914 18685 net.cpp:170] fc8_4nail_fc8_4nail_0_split needs backward computation.
I0329 17:06:33.922922 18685 net.cpp:170] fc8_4nail needs backward computation.
…
