…
I0915 20:13:40.272893 16053 solver.cpp:67] Creating training net from net file: ./model/train.prototxt
I0915 20:13:40.273468 16053 net.cpp:275] The NetState phase (0) differed from the phase (1) specified by a rule in layer data
I0915 20:13:40.273658 16053 net.cpp:39] Initializing net from parameters: 
name: "CaffeNet"
layers {
  top: "data"
  top: "label"
  name: "data"
  type: DATA
  data_param {
    source: "./data/train_lmdb"
    batch_size: 48
    backend: LMDB
  }
  include {
    phase: TRAIN
  }
  transform_param {
    mirror: true
    crop_size: 227
    mean_file: "./data/mean_train.proto"
  }
}
layers {
  bottom: "data"
  top: "conv1"
  name: "conv1"
  type: CONVOLUTION
  blobs_lr: 1
  blobs_lr: 2
  weight_decay: 1
  weight_decay: 0
  convolution_param {
    num_output: 96
    kernel_size: 11
    stride: 4
    weight_filler {
      type: "gaussian"
      std: 0.01
    }
    bias_filler {
      type: "constant"
      value: 0
    }
  }
}
layers {
  bottom: "conv1"
  top: "conv1"
  name: "relu1"
  type: RELU
}
layers {
  bottom: "conv1"
  top: "pool1"
  name: "pool1"
  type: POOLING
  pooling_param {
    pool: MAX
    kernel_size: 3
    stride: 2
  }
}
layers {
  bottom: "pool1"
  top: "norm1"
  name: "norm1"
  type: LRN
  lrn_param {
    local_size: 5
    alpha: 0.0001
    beta: 0.75
  }
}
layers {
  bottom: "norm1"
  top: "conv2"
  name: "conv2"
  type: CONVOLUTION
  blobs_lr: 1
  blobs_lr: 2
  weight_decay: 1
  weight_decay: 0
  convolution_param {
    num_output: 256
    pad: 2
    kernel_size: 5
    group: 2
    weight_filler {
      type: "gaussian"
      std: 0.01
    }
    bias_filler {
      type: "constant"
      value: 1
    }
  }
}
layers {
  bottom: "conv2"
  top: "conv2"
  name: "relu2"
  type: RELU
}
layers {
  bottom: "conv2"
  top: "pool2"
  name: "pool2"
  type: POOLING
  pooling_param {
    pool: MAX
    kernel_size: 3
    stride: 2
  }
}
layers {
  bottom: "pool2"
  top: "norm2"
  name: "norm2"
  type: LRN
  lrn_param {
    local_size: 5
    alpha: 0.0001
    beta: 0.75
  }
}
layers {
  bottom: "norm2"
  top: "conv3"
  name: "conv3"
  type: CONVOLUTION
  blobs_lr: 1
  blobs_lr: 2
  weight_decay: 1
  weight_decay: 0
  convolution_param {
    num_output: 384
    pad: 1
    kernel_size: 3
    weight_filler {
      type: "gaussian"
      std: 0.01
    }
    bias_filler {
      type: "constant"
      value: 0
    }
  }
}
layers {
  bottom: "conv3"
  top: "conv3"
  name: "relu3"
  type: RELU
}
layers {
  bottom: "conv3"
  top: "conv4"
  name: "conv4"
  type: CONVOLUTION
  blobs_lr: 1
  blobs_lr: 2
  weight_decay: 1
  weight_decay: 0
  convolution_param {
    num_output: 384
    pad: 1
    kernel_size: 3
    group: 2
    weight_filler {
      type: "gaussian"
      std: 0.01
    }
    bias_filler {
      type: "constant"
      value: 1
    }
  }
}
layers {
  bottom: "conv4"
  top: "conv4"
  name: "relu4"
  type: RELU
}
layers {
  bottom: "conv4"
  top: "conv5"
  name: "conv5"
  type: CONVOLUTION
  blobs_lr: 1
  blobs_lr: 2
  weight_decay: 1
  weight_decay: 0
  convolution_param {
    num_output: 256
    pad: 1
    kernel_size: 3
    group: 2
    weight_filler {
      type: "gaussian"
      std: 0.01
    }
    bias_filler {
      type: "constant"
      value: 1
    }
  }
}
layers {
  bottom: "conv5"
  top: "conv5"
  name: "relu5"
  type: RELU
}
layers {
  bottom: "conv5"
  top: "pool5"
  name: "pool5"
  type: POOLING
  pooling_param {
    pool: MAX
    kernel_size: 3
    stride: 2
  }
}
layers {
  bottom: "pool5"
  top: "fc6"
  name: "fc6"
  type: INNER_PRODUCT
  blobs_lr: 1
  blobs_lr: 2
  weight_decay: 1
  weight_decay: 0
  inner_product_param {
    num_output: 4096
    weight_filler {
      type: "gaussian"
      std: 0.005
    }
    bias_filler {
      type: "constant"
      value: 1
    }
  }
}
layers {
  bottom: "fc6"
  top: "fc6"
  name: "relu6"
  type: RELU
}
layers {
  bottom: "fc6"
  top: "fc6"
  name: "drop6"
  type: DROPOUT
  dropout_param {
    dropout_ratio: 0.5
  }
}
layers {
  bottom: "fc6"
  top: "fc7"
  name: "fc7"
  type: INNER_PRODUCT
  blobs_lr: 1
  blobs_lr: 2
  weight_decay: 1
  weight_decay: 0
  inner_product_param {
    num_output: 4096
    weight_filler {
      type: "gaussian"
      std: 0.005
    }
    bias_filler {
      type: "constant"
      value: 1
    }
  }
}
layers {
  bottom: "fc7"
  top: "fc7"
  name: "relu7"
  type: RELU
}
layers {
  bottom: "fc7"
  top: "fc7"
  name: "drop7"
  type: DROPOUT
  dropout_param {
    dropout_ratio: 0.5
  }
}
layers {
  bottom: "fc7"
  top: "fc8_4nail"
  name: "fc8_4nail"
  type: INNER_PRODUCT
  blobs_lr: 10
  blobs_lr: 20
  weight_decay: 1
  weight_decay: 0
  inner_product_param {
    num_output: 5
    weight_filler {
      type: "gaussian"
      std: 0.01
    }
    bias_filler {
      type: "constant"
      value: 0
    }
  }
}
layers {
  bottom: "fc8_4nail"
  bottom: "label"
  top: "accuracy"
  name: "accuracy"
  type: ACCURACY
}
layers {
  bottom: "fc8_4nail"
  bottom: "label"
  top: "loss"
  name: "loss"
  type: SOFTMAX_LOSS
}
state {
  phase: TRAIN
}
I0915 20:13:40.276981 16053 net.cpp:67] Creating Layer data
I0915 20:13:40.277010 16053 net.cpp:356] data -> data
I0915 20:13:40.277035 16053 net.cpp:356] data -> label
I0915 20:13:40.277056 16053 net.cpp:96] Setting up data
I0915 20:13:40.278625 16053 data_layer.cpp:68] Opening lmdb ./data/train_lmdb
I0915 20:13:40.278815 16053 data_layer.cpp:128] output data size: 48,3,227,227
I0915 20:13:40.278833 16053 base_data_layer.cpp:36] Loading mean file from./data/mean_train.proto
I0915 20:13:40.297435 16053 net.cpp:103] Top shape: 48 3 227 227 (7420176)
I0915 20:13:40.297456 16053 net.cpp:103] Top shape: 48 1 1 1 (48)
I0915 20:13:40.297466 16053 net.cpp:67] Creating Layer label_data_1_split
I0915 20:13:40.297472 16053 net.cpp:394] label_data_1_split <- label
I0915 20:13:40.297510 16053 net.cpp:356] label_data_1_split -> label_data_1_split_0
I0915 20:13:40.297528 16053 net.cpp:356] label_data_1_split -> label_data_1_split_1
I0915 20:13:40.297544 16053 net.cpp:96] Setting up label_data_1_split
I0915 20:13:40.297569 16053 net.cpp:103] Top shape: 48 1 1 1 (48)
I0915 20:13:40.297581 16053 net.cpp:103] Top shape: 48 1 1 1 (48)
I0915 20:13:40.297591 16053 net.cpp:67] Creating Layer conv1
I0915 20:13:40.297596 16053 net.cpp:394] conv1 <- data
I0915 20:13:40.297603 16053 net.cpp:356] conv1 -> conv1
I0915 20:13:40.297617 16053 net.cpp:96] Setting up conv1
I0915 20:13:40.298776 16053 net.cpp:103] Top shape: 48 96 55 55 (13939200)
I0915 20:13:40.298799 16053 net.cpp:67] Creating Layer relu1
I0915 20:13:40.298810 16053 net.cpp:394] relu1 <- conv1
I0915 20:13:40.298817 16053 net.cpp:345] relu1 -> conv1 (in-place)
I0915 20:13:40.298830 16053 net.cpp:96] Setting up relu1
I0915 20:13:40.298835 16053 net.cpp:103] Top shape: 48 96 55 55 (13939200)
I0915 20:13:40.298842 16053 net.cpp:67] Creating Layer pool1
I0915 20:13:40.298846 16053 net.cpp:394] pool1 <- conv1
I0915 20:13:40.298852 16053 net.cpp:356] pool1 -> pool1
I0915 20:13:40.298859 16053 net.cpp:96] Setting up pool1
I0915 20:13:40.298877 16053 net.cpp:103] Top shape: 48 96 27 27 (3359232)
I0915 20:13:40.298889 16053 net.cpp:67] Creating Layer norm1
I0915 20:13:40.298894 16053 net.cpp:394] norm1 <- pool1
I0915 20:13:40.298900 16053 net.cpp:356] norm1 -> norm1
I0915 20:13:40.298912 16053 net.cpp:96] Setting up norm1
I0915 20:13:40.298919 16053 net.cpp:103] Top shape: 48 96 27 27 (3359232)
I0915 20:13:40.298931 16053 net.cpp:67] Creating Layer conv2
I0915 20:13:40.298936 16053 net.cpp:394] conv2 <- norm1
I0915 20:13:40.298943 16053 net.cpp:356] conv2 -> conv2
I0915 20:13:40.298954 16053 net.cpp:96] Setting up conv2
I0915 20:13:40.309003 16053 net.cpp:103] Top shape: 48 256 27 27 (8957952)
I0915 20:13:40.309041 16053 net.cpp:67] Creating Layer relu2
I0915 20:13:40.309047 16053 net.cpp:394] relu2 <- conv2
I0915 20:13:40.309054 16053 net.cpp:345] relu2 -> conv2 (in-place)
I0915 20:13:40.309062 16053 net.cpp:96] Setting up relu2
I0915 20:13:40.309065 16053 net.cpp:103] Top shape: 48 256 27 27 (8957952)
I0915 20:13:40.309073 16053 net.cpp:67] Creating Layer pool2
I0915 20:13:40.309084 16053 net.cpp:394] pool2 <- conv2
I0915 20:13:40.309093 16053 net.cpp:356] pool2 -> pool2
I0915 20:13:40.309101 16053 net.cpp:96] Setting up pool2
I0915 20:13:40.309113 16053 net.cpp:103] Top shape: 48 256 13 13 (2076672)
I0915 20:13:40.309123 16053 net.cpp:67] Creating Layer norm2
I0915 20:13:40.309133 16053 net.cpp:394] norm2 <- pool2
I0915 20:13:40.309142 16053 net.cpp:356] norm2 -> norm2
I0915 20:13:40.309154 16053 net.cpp:96] Setting up norm2
I0915 20:13:40.309160 16053 net.cpp:103] Top shape: 48 256 13 13 (2076672)
I0915 20:13:40.309168 16053 net.cpp:67] Creating Layer conv3
I0915 20:13:40.309173 16053 net.cpp:394] conv3 <- norm2
I0915 20:13:40.309182 16053 net.cpp:356] conv3 -> conv3
I0915 20:13:40.309195 16053 net.cpp:96] Setting up conv3
I0915 20:13:40.339567 16053 net.cpp:103] Top shape: 48 384 13 13 (3115008)
I0915 20:13:40.339622 16053 net.cpp:67] Creating Layer relu3
I0915 20:13:40.339629 16053 net.cpp:394] relu3 <- conv3
I0915 20:13:40.339637 16053 net.cpp:345] relu3 -> conv3 (in-place)
I0915 20:13:40.339650 16053 net.cpp:96] Setting up relu3
I0915 20:13:40.339656 16053 net.cpp:103] Top shape: 48 384 13 13 (3115008)
I0915 20:13:40.339663 16053 net.cpp:67] Creating Layer conv4
I0915 20:13:40.339668 16053 net.cpp:394] conv4 <- conv3
I0915 20:13:40.339680 16053 net.cpp:356] conv4 -> conv4
I0915 20:13:40.339694 16053 net.cpp:96] Setting up conv4
I0915 20:13:40.362429 16053 net.cpp:103] Top shape: 48 384 13 13 (3115008)
I0915 20:13:40.362459 16053 net.cpp:67] Creating Layer relu4
I0915 20:13:40.362465 16053 net.cpp:394] relu4 <- conv4
I0915 20:13:40.362478 16053 net.cpp:345] relu4 -> conv4 (in-place)
I0915 20:13:40.362484 16053 net.cpp:96] Setting up relu4
I0915 20:13:40.362489 16053 net.cpp:103] Top shape: 48 384 13 13 (3115008)
I0915 20:13:40.362496 16053 net.cpp:67] Creating Layer conv5
I0915 20:13:40.362505 16053 net.cpp:394] conv5 <- conv4
I0915 20:13:40.362515 16053 net.cpp:356] conv5 -> conv5
I0915 20:13:40.362522 16053 net.cpp:96] Setting up conv5
I0915 20:13:40.377408 16053 net.cpp:103] Top shape: 48 256 13 13 (2076672)
I0915 20:13:40.377434 16053 net.cpp:67] Creating Layer relu5
I0915 20:13:40.377440 16053 net.cpp:394] relu5 <- conv5
I0915 20:13:40.377451 16053 net.cpp:345] relu5 -> conv5 (in-place)
I0915 20:13:40.377459 16053 net.cpp:96] Setting up relu5
I0915 20:13:40.377463 16053 net.cpp:103] Top shape: 48 256 13 13 (2076672)
I0915 20:13:40.377477 16053 net.cpp:67] Creating Layer pool5
I0915 20:13:40.377481 16053 net.cpp:394] pool5 <- conv5
I0915 20:13:40.377488 16053 net.cpp:356] pool5 -> pool5
I0915 20:13:40.377501 16053 net.cpp:96] Setting up pool5
I0915 20:13:40.377511 16053 net.cpp:103] Top shape: 48 256 6 6 (442368)
I0915 20:13:40.377524 16053 net.cpp:67] Creating Layer fc6
I0915 20:13:40.377528 16053 net.cpp:394] fc6 <- pool5
I0915 20:13:40.377535 16053 net.cpp:356] fc6 -> fc6
I0915 20:13:40.377548 16053 net.cpp:96] Setting up fc6
I0915 20:13:41.755343 16053 net.cpp:103] Top shape: 48 4096 1 1 (196608)
I0915 20:13:41.755403 16053 net.cpp:67] Creating Layer relu6
I0915 20:13:41.755410 16053 net.cpp:394] relu6 <- fc6
I0915 20:13:41.755419 16053 net.cpp:345] relu6 -> fc6 (in-place)
I0915 20:13:41.755429 16053 net.cpp:96] Setting up relu6
I0915 20:13:41.755434 16053 net.cpp:103] Top shape: 48 4096 1 1 (196608)
I0915 20:13:41.755444 16053 net.cpp:67] Creating Layer drop6
I0915 20:13:41.755455 16053 net.cpp:394] drop6 <- fc6
I0915 20:13:41.755462 16053 net.cpp:345] drop6 -> fc6 (in-place)
I0915 20:13:41.755468 16053 net.cpp:96] Setting up drop6
I0915 20:13:41.756431 16053 net.cpp:103] Top shape: 48 4096 1 1 (196608)
I0915 20:13:41.756450 16053 net.cpp:67] Creating Layer fc7
I0915 20:13:41.756455 16053 net.cpp:394] fc7 <- fc6
I0915 20:13:41.756463 16053 net.cpp:356] fc7 -> fc7
I0915 20:13:41.756477 16053 net.cpp:96] Setting up fc7
I0915 20:13:42.366428 16053 net.cpp:103] Top shape: 48 4096 1 1 (196608)
I0915 20:13:42.366485 16053 net.cpp:67] Creating Layer relu7
I0915 20:13:42.366493 16053 net.cpp:394] relu7 <- fc7
I0915 20:13:42.366504 16053 net.cpp:345] relu7 -> fc7 (in-place)
I0915 20:13:42.366514 16053 net.cpp:96] Setting up relu7
I0915 20:13:42.366519 16053 net.cpp:103] Top shape: 48 4096 1 1 (196608)
I0915 20:13:42.366526 16053 net.cpp:67] Creating Layer drop7
I0915 20:13:42.366530 16053 net.cpp:394] drop7 <- fc7
I0915 20:13:42.366546 16053 net.cpp:345] drop7 -> fc7 (in-place)
I0915 20:13:42.366554 16053 net.cpp:96] Setting up drop7
I0915 20:13:42.366559 16053 net.cpp:103] Top shape: 48 4096 1 1 (196608)
I0915 20:13:42.366567 16053 net.cpp:67] Creating Layer fc8_4nail
I0915 20:13:42.366571 16053 net.cpp:394] fc8_4nail <- fc7
I0915 20:13:42.366578 16053 net.cpp:356] fc8_4nail -> fc8_4nail
I0915 20:13:42.366590 16053 net.cpp:96] Setting up fc8_4nail
I0915 20:13:42.367341 16053 net.cpp:103] Top shape: 48 5 1 1 (240)
I0915 20:13:42.367362 16053 net.cpp:67] Creating Layer fc8_4nail_fc8_4nail_0_split
I0915 20:13:42.367368 16053 net.cpp:394] fc8_4nail_fc8_4nail_0_split <- fc8_4nail
I0915 20:13:42.367377 16053 net.cpp:356] fc8_4nail_fc8_4nail_0_split -> fc8_4nail_fc8_4nail_0_split_0
I0915 20:13:42.367386 16053 net.cpp:356] fc8_4nail_fc8_4nail_0_split -> fc8_4nail_fc8_4nail_0_split_1
I0915 20:13:42.367394 16053 net.cpp:96] Setting up fc8_4nail_fc8_4nail_0_split
I0915 20:13:42.367400 16053 net.cpp:103] Top shape: 48 5 1 1 (240)
I0915 20:13:42.367405 16053 net.cpp:103] Top shape: 48 5 1 1 (240)
I0915 20:13:42.367411 16053 net.cpp:67] Creating Layer accuracy
I0915 20:13:42.367421 16053 net.cpp:394] accuracy <- fc8_4nail_fc8_4nail_0_split_0
I0915 20:13:42.367427 16053 net.cpp:394] accuracy <- label_data_1_split_0
I0915 20:13:42.367434 16053 net.cpp:356] accuracy -> accuracy
I0915 20:13:42.367440 16053 net.cpp:96] Setting up accuracy
I0915 20:13:42.367455 16053 net.cpp:103] Top shape: 1 1 1 1 (1)
I0915 20:13:42.367465 16053 net.cpp:67] Creating Layer loss
I0915 20:13:42.367475 16053 net.cpp:394] loss <- fc8_4nail_fc8_4nail_0_split_1
I0915 20:13:42.367481 16053 net.cpp:394] loss <- label_data_1_split_1
I0915 20:13:42.367490 16053 net.cpp:356] loss -> loss
I0915 20:13:42.367502 16053 net.cpp:96] Setting up loss
I0915 20:13:42.367516 16053 net.cpp:103] Top shape: 1 1 1 1 (1)
I0915 20:13:42.367525 16053 net.cpp:109]     with loss weight 1
I0915 20:13:42.367563 16053 net.cpp:170] loss needs backward computation.
I0915 20:13:42.367568 16053 net.cpp:172] accuracy does not need backward computation.
I0915 20:13:42.367573 16053 net.cpp:170] fc8_4nail_fc8_4nail_0_split needs backward computation.
I0915 20:13:42.367578 16053 net.cpp:170] fc8_4nail needs backward computation.
…
